models/dqn_model.pth (torch, 53805 bytes, 6 tensors)

model.0.weight f4 [128, 31]
000000 c2 47 7b 3e 1e a9 83 3e b4 2a 87 3d f3 ce 8b 3e
       0.24539092 0.25714964 0.06599942 0.27306327
000010 09 bf 8c 3d 49 c8 13 3e 3b 09 a9 3c 2d ae 5a 3e
       0.068723746 0.14431871 0.020634284 0.21355505
000020 59 66 88 3e dc 0c c2 bc a9 43 87 3e 4c 17 11 3e
       0.26640585 -0.023687772 0.26418808 0.14169043
000030 5a 8c 76 3e b8 93 07 3e 0c 5a 47 3e 9a 67 a9 3d
       0.24076977 0.13239944 0.19467944 0.082717136
000040 98 72 7c 3e 90 da 09 3e 64 7c c6 3c a8 8c 1d 3e
       0.24653089 0.13462281 0.024229236 0.15385687
000050 4c 77 cf 3c db 33 b2 3d 3a e2 0f 3d 9c ac 68 3e
       0.02532544 0.08701297 0.035127856 0.22722095
000060 20 08 0a bd c3 5f 77 be 0e b8 0c bf d8 58 8c be
       -0.033699155 -0.24157624 -0.54968345 -0.27411532
000070 bc 4e 42 be fa 79 03 bf 0f c2 0e 3f 6a 2c dd bc
       -0.18975347 -0.51357996 0.5576486 -0.026998717
000080 32 49 87 3e b2 30 1f 3e 37 bb 89 3d d5 3b 72 3e
       0.2642303 0.1554592 0.067251615 0.23655637
000090 1e 3f 1d 3e 30 97 8a 3e 47 b0 14 3e ed 29 8d 3d
       0.15356109 0.27068472 0.1452037 0.06892762
0000a0 8b ff 31 3e 53 6b 9d 3d 3f fc 4d 3e d3 64 92 3e
       0.17382638 0.07686486 0.20115755 0.28592548
0000b0 b0 e5 6a 3e 08 b9 40 3d 47 c0 6a 3e 8e 7d 21 3e
       0.22939181 0.04705146 0.2292491 0.15770552
0000c0 5f fb 5d 3e e2 e3 83 3c 68 e7 55 bd 9b 1a 66 3d
       0.21677922 0.016099874 -0.05222264 0.056177717
0000d0 25 bd 47 bc 2f bf 8b 3e 76 8e 35 3e 6b c3 4c 3e
       -0.012191092 0.272943 0.17730126 0.19996421
0000e0 58 d2 9c bd 61 32 2a be 9f e7 9d 3d 22 2e 5a be
       -0.076573074 -0.1662078 0.07710194 -0.21306661
0000f0 b2 0e 76 3c b5 0d 30 3e a3 61 38 3d dc e7 93 bd
       0.015018152 0.17192729 0.04501499 -0.07221958
000100 08 f5 36 3d 2d bb 43 bd 42 ec 0d 3e c8 3e ef bd
       0.044667274 -0.047785927 0.13859656 -0.116818964
000110 b3 9a f0 bd 49 9e f0 bd 67 ce 1a 3e d9 b2 4a 3d
       -0.117482565 -0.117489405 0.15117799 0.04948697
000120 da 5b 26 3e 9b 65 22 be 89 09 41 be 2a 81 1a be
       0.16245976 -0.15859072 -0.18851294 -0.15088335
000130 68 55 06 be f1 82 7f 3d 24 f6 5c 3d 64 34 0e 3e
       -0.13118517 0.062380735 0.053945675 0.13887173
000140 43 30 d3 bd 3c fe 07 be b9 ee ad 3d ef e8 a9 bd
       -0.103119396 -0.13280576 0.08492798 -0.08296382
000150 d0 03 ca 3d 05 09 59 bd 8a 2f bd 3d 8f e5 0e be
       0.098640084 -0.052987117 0.09237583 -0.13954757
000160 4c a0 b9 bd 09 d3 35 3d 58 86 1b 3d 54 90 3b bd
       -0.09063777 0.044390712 0.037969917 -0.04579194
000170 b2 05 c6 3d 2c 0e fa 3d f1 5e 05 be a6 5f c4 bd
       0.09669055 0.12209734 -0.13024499 -0.09588556
000180 9c 67 28 3e 9a 3c 78 bd 01 67 82 bd ba f4 31 be
       0.16445774 -0.06060467 -0.06367303 -0.17378512
000190 70 a5 d2 bd 7c c5 37 3d 80 34 c2 bc 7e 80 05 be
       -0.10285461 0.04486607 -0.023706675 -0.13037297
0001a0 c0 0c 8a 3b 4e 42 fb bd 98 08 1c be 18 8d ca bd
       0.0042129457 -0.12268506 -0.15237653 -0.09890193
0001b0 22 f7 20 be 61 36 ea bd 0a d8 37 3e c8 f2 0a 3d
       -0.15719274 -0.11436153 0.17953506 0.03392294
0001c0 a8 b3 62 3d 11 89 2b be 0b 95 f1 bd ac de 74 bd
       0.055347115 -0.16751505 -0.11796006 -0.05978267
0001d0 b0 12 e6 3c db d4 21 be 1e 7d 9e bd 92 35 dc bd
       0.028085083 -0.15803854 -0.07738708 -0.10752405
0001e0 00 7a 02 3a 10 df 88 bd d0 e9 4b bc f0 40 f9 bd
       0.0004977286 -0.06683171 -0.012445882 -0.12170589
0001f0 56 7a fc bd fa 97 d6 bd d0 d0 7b bd 48 29 11 be
       -0.12328021 -0.10478206 -0.061478436 -0.14175904
000200 38 35 1a 3e b0 00 12 bd 96 3d 1e 3e 34 38 65 3d
       0.15059364 -0.035645187 0.1545318 0.055961803
000210 48 bd 1b be 6c 8d fe 3d f8 69 4a bd dd ff 8c bd
       -0.15208924 0.12429318 -0.049417466 -0.068847395
000220 c1 a9 18 be 86 d7 36 be 28 7b 52 3d 80 b3 20 bd
       -0.14908506 -0.17855653 0.051386982 -0.039233685
000230 94 34 8f 3d d9 ee 16 be 62 8b 08 3e 0d 01 07 be
       0.0699245 -0.1473955 0.1333442 -0.13183995
000240 10 0f fe bc 64 a8 19 3d cc e4 bd 3d 26 7a 14 3e
       -0.031013042 0.037514105 0.09272155 0.14499721
000250 32 8a 27 3e b8 d4 11 be 74 24 39 3d c5 36 9e bd
       0.16361311 -0.14241302 0.04520078 -0.0772529
000260 30 3c a1 bc c0 a8 09 be 76 85 27 3e 5b 45 20 be
       -0.01968202 -0.1344328 0.16359505 -0.15651457
000270 2e 04 92 3d c4 65 1d 3d 1d ea 09 3d 44 70 f9 bd
       0.071297035 0.03842713 0.033670533 -0.12179616
000280 7f e2 0d 3e 4d 13 72 3c 2d 41 d0 ba ce 5c 3b be
       0.13855933 0.0147751095 -0.0015888565 -0.18297121
000290 e7 ad 4f 3d f2 81 53 bd 99 15 db bd 25 b0 04 3e
       0.050702956 -0.051637597 -0.10697479 0.12957819
0002a0 98 7c 7b 3c 97 15 fe bd e3 be ec bd 9a 46 08 bd
       0.01534953 -0.12406462 -0.11559846 -0.033270456
0002b0 aa cf 9a 3d ae 90 90 bd 3d 39 02 be 78 88 b0 bd
       0.0755914 -0.070588455 -0.12717147 -0.08619779
0002c0 49 af 22 be c2 37 21 3d 10 25 ea 3d 7d 6e 46 be
       -0.15887178 0.039359815 0.1143285 -0.19378085
0002d0 82 7a 8a 3c bb d5 89 3d 49 1e ec 3b 7d 84 b7 bd
       0.01690412 0.06730219 0.0072057587 -0.08960817
0002e0 c5 ff 8c 3d 4e c6 8f 3d 02 e2 45 3e 64 96 c1 3d
       0.06884722 0.070202455 0.19324496 0.09452513
0002f0 3e d2 a0 3d 8d c9 14 3e 94 3e c1 3d 04 9c 94 3d
       0.078526005 0.1453001 0.09435764 0.0725632
000300 ec ab 76 3e 94 95 8f 3e 2a cf dd 3d 0b de af 3d
       0.2408902 0.28043807 0.10830529 0.08587273
000310 8d cb 03 3e cf 42 ec 3d c3 53 2d 3e b1 a6 34 3e
       0.12870617 0.1153618 0.16926484 0.17641713
000320 ed b8 17 bd 0d f6 74 3d 02 ff 8d 3e d8 c1 48 3e
       -0.037041593 0.059804965 0.27733618 0.19605196
000330 b2 ed ef 3d 0e d3 91 3c 22 bb 84 3c cd 88 0e bd
       0.11715259 0.017800834 0.016202513 -0.034798432
000340 01 53 8a 3d 91 38 3f 3e 56 61 76 3e 23 d8 13 bd
       0.06754113 0.18673922 0.24060568 -0.036094796
000350 e5 04 cf be 04 f6 ee bd 41 86 de bd 3e 4c 4b 3e
       -0.40433422 -0.116680175 -0.10865451 0.19853303
000360 96 2e a4 3e e8 83 3e bd 74 2d 98 3d ad 19 8c bd
       0.32066792 -0.046512514 0.074305445 -0.06840835
000370 c5 14 ee bd e2 3c 06 3e f3 40 a7 bd dc 79 13 bd
       -0.11625055 0.13109162 -0.08166685 -0.036004886
000380 d3 f5 36 be d0 2d f6 3d 4c 57 0b 3e 3a 0e 86 3d
       -0.17867212 0.12020457 0.1360752 0.06545682
000390 61 3d 00 be 8d 83 35 be 61 5f 15 be 66 25 09 3e
       -0.12523414 -0.17725964 -0.14587165 0.13393173
0003a0 1c 99 b0 3d 18 c4 1a 3e 28 b2 c0 3d cc 30 3a 3d
       0.08622953 0.15113866 0.094089806 0.045456693
0003b0 00 88 e6 ba 7d de 0b be f0 92 1d be 82 06 2c be
       -0.0017588139 -0.13659091 -0.15388083 -0.16799358
0003c0 88 93 96 3d f4 97 b4 bd dc 0d 14 bd 66 b0 d3 bd
       0.07352358 -0.08818045 -0.03614603 -0.1033638
0003d0 20 0e 06 bd 46 72 01 be d4 58 f0 bd 08 07 74 3d
       -0.032728314 -0.12641248 -0.117356926 0.059577018
0003e0 02 ec 26 3c 4b a1 32 3e e8 e0 c2 3b 17 a5 8b bd
       0.010188105 0.17444341 0.005947221 -0.06818598
0003f0 44 91 02 3d db 7c c0 bc 0f 30 0d 3c 75 fd db bd
       0.031876817 -0.023497036 0.008617415 -0.107417025

model.0.bias f4 [128]
000000 4d 4d 26 bc f8 e4 1d 3e 6d ad 1a 3d c8 f2 be 3d
       -0.010150266 0.15419376 0.037763048 0.093236506
000010 e8 13 59 bd 43 9c 75 bd 42 a9 a1 bc 40 8f df 3d
       -0.0529975 -0.059963476 -0.019734029 0.10915995
000020 7e dd 3b 3e ac 8b ac 3d 13 cd 60 3e 09 e0 6a 3e
       0.18346211 0.08425078 0.2195323 0.22937025
000030 50 5e 20 3e ec eb 70 3d 51 ae 34 3e 48 64 67 3d
       0.15660977 0.058818743 0.17644621 0.05649212
000040 92 b7 92 3c 73 00 33 3e 05 b0 3a 3d 00 bb ed bc
       0.017909799 0.1748064 0.04557802 -0.029019833
000050 50 b9 59 bd ef c8 00 be bc e1 a4 3c cb 65 71 3e
       -0.053155243 -0.1257665 0.02012717 0.23573987
000060 1e af 10 3e ce 61 10 3e 1b 5c 32 3e 75 c3 33 3d
       0.14129302 0.1409981 0.17417948 0.043887574
000070 4a b2 f8 3d 36 34 6b 3d f2 59 bf bd 1f 76 b8 bd
       0.12143381 0.05742284 -0.093433276 -0.09006905
000080 94 af 36 3e d0 04 1f 3e ba 10 a3 3b 3e 56 0c 3e
       0.17840415 0.1552918 0.004976359 0.13704774
000090 2b a1 40 be f2 58 03 3e d5 c7 f5 3d 33 ed 10 3e
       -0.1881148 0.12826899 0.120010056 0.14152984
0000a0 27 a7 2a 3e a3 b5 de bd 7f 20 80 3d 9d 5f 2c 3e
       0.16665326 -0.10874488 0.06256198 0.16833349
0000b0 8f c8 d5 3c 2a 13 ac bd 40 61 63 3e ac ec 2f 3e
       0.02609661 -0.08402093 0.22205067 0.17180127
0000c0 2d 46 50 3e cf 29 02 be a1 e6 77 3e 32 c0 bb 3d
       0.2033927 -0.12711261 0.24209072 0.09167518
0000d0 81 cc f1 3c dd f9 4c 3e 7e 25 17 bd 12 c3 2e 3e
       0.02951646 0.2001719 -0.03690099 0.17066601
0000e0 ec c5 46 bd b0 a2 e5 3d 94 03 58 3d 62 f3 2e 3d
       -0.048528597 0.11212671 0.052737787 0.042712577
0000f0 70 9a 09 3d 7e af 8a 3d a1 03 e1 3c 0c 80 32 3e
       0.03359455 0.06771754 0.02746755 0.17431659
000100 10 73 1a 3e 30 0c 0a be 17 ea b1 bc 4d 07 23 3e
       0.15082955 -0.13481212 -0.021718068 0.15920754
000110 da f2 24 3e c5 d6 07 3e 8a b3 90 3e 10 2c 3f bd
       0.16108266 0.13265522 0.28261977 -0.04667288
000120 10 c4 3d 3d 5f e4 a7 3d 98 a3 0e bd 14 95 73 3e
       0.046329558 0.08197855 -0.034823984 0.23787338
000130 23 29 4e 3e 98 cb a3 3d 40 67 26 3d 3b af 93 3e
       0.2013288 0.07997817 0.04062581 0.28844628
000140 20 78 03 bc 3b 6e 4b 3e a7 89 27 3e 4f 35 80 3e
       -0.0080242455 0.19866268 0.16361104 0.2504067
000150 2a e6 3c bb a8 40 00 3d 6b 68 61 3c b3 7e 40 3e
       -0.0028823712 0.03131166 0.013757805 0.18798332
000160 0c ed ed 3d bc 10 0f be eb 36 8a 3d 4d f3 09 3e
       0.11617479 -0.13971227 0.06748756 0.13471718
000170 fa d2 78 3d a1 4f 8b 3e 09 99 61 3e 97 a3 b7 3c
       0.060748078 0.2720919 0.22031035 0.022416873
000180 e7 c9 63 3e 97 0f 36 be 35 88 68 3e 0f 9e 1d 3d
       0.22244988 -0.17779385 0.22708209 0.038480815
000190 92 2a b0 3d a5 d9 16 3e 44 3a de bc 6a e4 84 3e
       0.0860187 0.14731462 -0.027127393 0.25955516
0001a0 b9 87 eb bd 6d 42 14 3d 4c a4 47 3e 9c e7 82 bd
       -0.115004964 0.03619616 0.19496268 -0.06391832
0001b0 1f d6 38 3e ab eb 35 be 0b 5b dc bd c0 89 9e 3d
       0.1805043 -0.17765681 -0.107595526 0.077411175
0001c0 74 96 bd 3d df d0 28 be f1 7d 4a 3d b8 58 8a 3c
       0.09257212 -0.16485928 0.049436513 0.016888008
0001d0 1e 6e 9b 3e af 81 2d bd 45 6c aa 3d 2c 51 d0 bd
       0.3035745 -0.042360004 0.08321432 -0.10171732
0001e0 32 8f 0e 3c 92 4d c2 3d 68 8d 36 be 90 39 59 3e
       0.008701133 0.094874516 -0.1782738 0.21213365
0001f0 cc 17 d7 3c 9d 5a 22 3e 7d e4 b6 3c 3c d6 ef 3d
       0.026256464 0.15854879 0.022325749 0.11710784

model.2.weight f4 [64, 128]
000000 b7 36 0e 3f 46 c4 5d 3e e1 aa 98 3d c7 83 8e 3d
       0.5555224 0.21656904 0.074544676 0.06958728
000010 14 7b fd bc 23 ca 9e 3d c2 1a 8d 3d 36 1e 26 3d
       -0.030942477 0.07753398 0.06889869 0.040556155
000020 53 8e 2e 3e 88 01 96 bd ad 3e ea 3d 3d df 92 3d
       0.1704648 -0.07324511 0.11437736 0.071714856
000030 2b db fe 3c e6 f1 02 bd 66 85 0b 3e cb 54 ac 3d
       0.031110367 -0.031968974 0.13625106 0.084146105
000040 9d c5 eb 3d fb dd 5b 3e 70 5b be bb af 90 5a 3e
       0.11512301 0.21471398 -0.00580924 0.21344255
000050 74 13 d8 3c 56 43 8f 3d 0c 6c 39 3e bb e9 03 3e
       0.026376463 0.06995265 0.18107623 0.1288213
000060 85 fd 9f 3d 31 cb 71 be c6 dd ec 3d e3 05 12 3e
       0.07812027 -0.23612668 0.115657374 0.14260058
000070 04 00 1e 3e fa 9f cc 3a 98 70 3d 3c ed 3b a1 bb
       0.15429693 0.0015611642 0.011562489 -0.004920474
000080 dd 2c 10 bd e1 d1 dd 3d c3 db 81 3e 0e f9 1c 3e
       -0.035199035 0.10831047 0.25362977 0.15329382
000090 44 81 5e bb 1f 83 6a 3e 1e c1 00 bd 24 82 f7 3d
       -0.003395156 0.22901581 -0.03143417 0.12085369
0000a0 b6 2b 07 3f 79 79 5b be ff 99 0b 3e 2b 92 a2 3e
       0.5280107 -0.21433057 0.13632964 0.31752142
0000b0 46 da 14 be b0 59 a2 bd cb 7c 84 3e fa b8 56 3e
       -0.1453639 -0.07927263 0.2587646 0.20969
0000c0 96 82 03 3e f6 c5 00 be 71 3a 4d 3e 4e 9d 6f 3e
       0.12842783 -0.12575516 0.20041825 0.2339985
0000d0 57 fe 50 bd 4b 5b 47 be 44 53 68 3e 07 21 27 3e
       -0.051023807 -0.19468419 0.22688013 0.16321193
0000e0 71 da 1a 3e b0 22 21 bc 40 18 48 3b 15 e0 21 be
       0.15122391 -0.00983493 0.0030532032 -0.15808137
0000f0 ac 4a 03 3e 7b d0 62 bd 4c 01 8c 3f 84 ad 5f 3e
       0.12821454 -0.055374604 1.0937896 0.21843535
000100 57 ad a4 3d 18 af 23 bc 83 72 98 3d 9a 56 db 3d
       0.080408745 -0.009990476 0.074437164 0.10709877
000110 a8 52 56 3e d7 aa 7c 3e ee df 5d 3e a0 24 0f bd
       0.20929968 0.24674545 0.21667454 -0.034947038
000120 a9 96 93 3d 25 6c 8e bd 10 c6 2d bc 81 24 14 3e
       0.072064705 -0.06954221 -0.010606304 0.1446705
000130 4c a9 ad 3d c8 88 4e bd 65 ac fd 3e 5c c3 43 3e
       0.084795564 -0.050423414 0.4954559 0.19117492
000140 13 21 1b 3e 58 61 55 3e 11 0b fa 3d 55 e5 7e 3e
       0.15149336 0.20837915 0.12209142 0.2489217
000150 14 6c 39 3e f3 0d 96 3d 0f ae 59 3e a5 ca 30 3d
       0.18107635 0.07326879 0.21257804 0.043162007
000160 75 07 b2 3d ca 10 5a 3d 43 2c 86 3e b4 63 9d 3e
       0.086928286 0.053238668 0.26205644 0.3074013
000170 f9 7a 73 3c 9a 1d f4 3d 79 1a 86 3e 87 60 96 3d
       0.014860862 0.119197085 0.26192072 0.0734263
000180 df 12 6d 3e c9 d5 62 3d d1 59 2b 3e 61 15 89 3e
       0.2315173 0.055379663 0.16733481 0.26774123
000190 a0 25 e1 bc 7e fa 23 3e f5 db 12 bd 3a 1b eb 3d
       -0.027483761 0.16013524 -0.0358543 0.114798024
0001a0 e5 0c 05 bd ef ff c2 3c 9c 0c 4f 3e 30 d5 6f bd
       -0.032483 0.02380368 0.20219654 -0.05855292
0001b0 48 65 24 3e e0 1a 7a 3c 35 a6 4d bd 44 4a 32 3d
       0.1605426 0.015265197 -0.050207336 0.043527856
0001c0 84 e6 99 bd 80 ae 5d 3a 64 67 77 bd 29 3c a3 bd
       -0.075146705 0.00084564835 -0.060401335 -0.07970459
0001d0 ec b3 0a 3e a9 c0 5e 3e ac b5 66 3e ac 1e 02 3d
       0.13545197 0.21753182 0.2253024 0.031767532
0001e0 2d 7c 67 3e 4a 92 b9 3d 8b e7 81 3d 11 c8 30 3e
       0.22605963 0.090611055 0.063429914 0.1726382
0001f0 90 7c b6 3e f1 8e b0 3e a6 38 1e 3e 4b 48 27 3e
       0.3564191 0.34484056 0.15451297 0.16336171
000200 9a 96 02 3f 65 b4 82 3d 4e b8 94 3d c8 32 1e 3c
       0.5101105 0.06382064 0.07261716 0.009655662
000210 00 1e 4d b9 09 8a 81 bd a8 33 5c 3e 48 54 6f bd
       -0.000195615 -0.06325156 0.2150408 -0.058429986
000220 84 a4 4b 3e 90 21 2e bc 38 37 30 3e 82 0b 44 3e
       0.19886976 -0.010628119 0.17208564 0.19145015
000230 65 06 22 bc 10 23 cb bc ed 86 6f 3e 26 b6 8a bd
       -0.00988922 -0.024796993 0.23391314 -0.06773023
000240 80 f6 34 3e 94 9a 13 3e 2e f0 a3 bc a5 5a 4d 3e
       0.17672157 0.14414436 -0.020011988 0.2005411
000250 18 7c 74 3c 40 79 8c bd 8a 3e 6b 3e 66 b6 bf 3d
       0.014922164 -0.06859064 0.22973076 0.093609616
000260 15 7d 9c 3d 37 fe a3 be d3 c3 77 3e 58 09 13 3e
       0.07641045 -0.32029888 0.24195795 0.14359033
000270 8b 6d 0c 3e d5 88 23 3e 20 22 34 bb 8c 94 eb bc
       0.13713662 0.15970166 -0.002748616 -0.028757356
000280 d6 09 46 3d 17 27 4c 3e b6 09 7d 3e c4 a3 87 3e
       0.048349224 0.19936787 0.24710736 0.2649213
000290 f6 60 d8 bb b4 56 bb 3d 77 a2 e2 bc ba c7 5b 3e
       -0.0066033555 0.09147397 -0.02766536 0.21462908
0002a0 8f a0 0e 3f 39 77 3d bd ca 13 0a 3d 3f 42 c4 3e
       0.5571374 -0.046256278 0.03371028 0.38331792
0002b0 e5 c3 83 be 6e 6c 00 3d 14 02 6d 3e 59 7e 59 3e
       -0.25735393 0.031353407 0.23145324 0.21239604
0002c0 16 2f d1 3d bf a2 21 be f9 5b e3 3d 1d 8a de 3d
       0.10214059 -0.15784739 0.11101527 0.10866187
0002d0 b5 05 bb 3d 20 72 2b be 1f fb 43 3e 4f 20 6f 3e
       0.09131948 -0.16742754 0.19138764 0.23352169
0002e0 a0 e5 66 3e 20 95 7c bd 20 81 24 bc 6d 5c 2b 3d
       0.22548532 -0.061665654 -0.010040551 0.04183619
0002f0 21 3d 70 3e b8 d7 07 bc d5 3e 6e 3f 3f 3c 6b 3e
       0.23460819 -0.008291177 0.93064624 0.22972201
000300 8c 4d ac 3c 1e d3 27 3d ab 53 81 3c 0f 51 67 3e
       0.021033071 0.04097282 0.015786966 0.22589515
000310 23 51 2c 3e 40 0b 0a 3e 5f 97 36 3e 09 7d 8e bd
       0.16827826 0.13480854 0.17831181 -0.06957442
000320 a0 fe 54 3b 2d ee 70 3d 03 81 a9 bd c7 bf e4 3d
       0.00325004 0.058820892 -0.0827656 0.11169391
000330 4a 25 5e 3e 80 5d 03 3b 0c bd 03 3f ad 8f 2c 3e
       0.21693912 0.0020044744 0.5146034 0.16851683
000340 cf 77 db 3d d6 f2 68 3e 56 81 01 3e 30 43 07 3e
       0.10716211 0.22748885 0.12646994 0.13209224
000350 b3 b2 56 3e ca ab 96 bd b9 a3 fb 3d 46 5a f4 3d
       0.20966606 -0.07356985 0.12287087 0.11931281
000360 08 71 ef 3d 8a 0a 45 3d 46 1d 9d 3d 06 0f d5 3e
       0.11691481 0.048105754 0.07671599 0.41613024
000370 d9 4d cb bc fa f4 67 3e 05 12 4d 3e 9a 95 66 bd
       -0.024817394 0.22652045 0.20026405 -0.056295015
000380 8a 7b 44 3e 4f 6d c2 3b e0 6c 7f 3e 4b 58 79 3e
       0.19187751 0.0059334408 0.24943876 0.24350087
000390 2f 15 1c bd 87 63 5d 3e b8 e8 e8 bc 9d d8 19 3e
       -0.03810614 0.21619998 -0.028431281 0.15024038
0003a0 d0 db 13 3d 7a ac c9 3d 9c 73 5b 3e b1 a8 ae bd
       0.0360983 0.098473504 0.2143082 -0.08528269
0003b0 c6 2e 01 3e 13 90 a8 3d a0 ad a7 bc e8 99 56 bd
       0.12615499 0.08230605 -0.020468533 -0.05239287
0003c0 c3 49 90 bd a3 d9 47 bd 9d 7a 13 bd e0 ed ac 3c
       -0.07045319 -0.04879154 -0.036005605 0.021109521
0003d0 ab bb 34 3e a1 03 5d 3e bb 5e 50 3e 00 2f ab 3a
       0.17649715 0.21583416 0.20348637 0.0013060272
0003e0 61 cf 51 3e d3 9b 36 3e c8 74 5d bd 5a 73 1f 3e
       0.20489265 0.1783288 -0.05406645 0.15571347
0003f0 68 f8 a7 3e 2e e5 ee 3e f5 2f a7 3d a4 9a 2c 3e
       0.32806706 0.46659225 0.08163444 0.16855866

model.2.bias f4 [64]
000000 d5 ac 55 3e 91 82 6c 3e 57 2d a7 bd be 34 0c bd
       0.20866711 0.23096682 -0.08162945 -0.034229986
000010 da 3a b4 bd 42 78 d3 bd d9 c5 ed 3c 2a 34 44 bd
       -0.088002875 -0.10325672 0.029025005 -0.04790131
000020 d0 5f b7 3d bc 84 d0 bc 9f a0 60 bd 7d 1b 07 3d
       0.08953822 -0.025453918 -0.05484068 0.0329852
000030 86 55 33 3e a3 d6 76 bd 8a fc 13 bd 77 93 07 3e
       0.17513093 -0.060263287 -0.036129512 0.13239847
000040 a5 8a 8a 3d 3a c6 f8 3d 8a f5 99 bd 0b e4 19 bd
       0.067647256 0.12147184 -0.07517536 -0.037570994
000050 e4 1f 65 3e 92 ad 9a bd ee 2f 06 3e a9 7a 83 3e
       0.22375447 -0.07552637 0.13104221 0.2567952
000060 54 ae 35 bd 5d 2c 60 3e 76 6f 5d 3c 81 b0 c6 3d
       -0.044355705 0.21891923 0.013515344 0.09701634
000070 6e 3b 6f 3d 3a 88 cc bc 01 a3 e2 3d 72 f3 fb bc
       0.058406286 -0.024967302 0.11066247 -0.030755732
000080 a5 25 ed 3b e4 f5 7e 3d 17 f2 e6 3d a3 1c ad bd
       0.0072371536 0.06224622 0.11276644 -0.08452728
000090 1e d7 f4 3c fb 41 76 3e ba 59 1a bd 0e 6d 94 bc
       0.029887732 0.24048607 -0.037683226 -0.018118408
0000a0 82 cc 00 3e 06 2e 84 3e f6 c0 05 3e b3 0e 60 bd
       0.12578014 0.25816363 0.1306189 -0.05470152
0000b0 d9 90 57 bd c9 0f d9 3d 59 35 03 3e 93 a5 aa bd
       -0.052628372 0.10598714 0.1281332 -0.08332362
0000c0 dd e6 26 bd 41 20 1d bd 98 15 93 bc 51 01 ce 3d
       -0.040747512 -0.038360838 -0.017954633 0.10058845
0000d0 90 b5 87 3b 6d 43 20 3d 2e 71 09 3e 0d 77 fe bb
       0.004141517 0.039126802 0.13422081 -0.007765657
0000e0 13 bd 83 3e 10 c3 39 3c 1a cc a3 bd 02 cd 77 3d
       0.2573019 0.01133801 -0.07997914 0.060498245
0000f0 60 1e ab bd 59 de f4 3d b5 30 75 3e 6a d8 f0 3b
       -0.08355403 0.11956472 0.23944362 0.0073500173

model.4.weight f4 [5, 64]
000000 56 7d 4c 3e da 5b 6c 3e 8c c9 69 3d ba b9 c3 bc
       0.19969687 0.23081914 0.057076976 -0.023892272
000010 2b 59 40 3d 82 0e cf 3d 98 73 36 3d a9 fe ab bd
       0.046960037 0.10110189 0.044543833 -0.08398182
000020 58 84 85 3e 38 17 f8 3d 39 e4 bc 3d a1 30 a3 3d
       0.26077533 0.121138036 0.092232175 0.079682596
000030 29 f8 57 3e 72 67 8b bd 94 ad 19 bd 6d df 65 3e
       0.2109076 -0.0680684 -0.037519053 0.22448511
000040 ac 66 02 3d 9a 05 61 3e 26 2d 84 bc 32 11 de bd
       0.031836197 0.21974793 -0.01613481 -0.108431235
000050 b1 a7 8a 3d 76 05 a1 bd 7f 1f 61 3d 00 ac 8d 3e
       0.06770266 -0.0786237 0.054961678 0.27670288
000060 cc 14 91 3d a3 1a 6b 3e df 2a 2d 3e 28 9a 8b 3e
       0.07084045 0.2295938 0.16910885 0.2726605
000070 40 0e 2e 3c ee 9e ae 3d 7b 30 14 3e 46 95 06 3e
       0.010623515 0.08526407 0.14471619 0.13142881
000080 a5 10 83 bc ee e2 92 3e 96 66 6f 3e c9 62 ad 3c
       -0.015999148 0.2868876 0.23378977 0.021165268
000090 c9 fc a5 bd 0c d6 16 3e fa 58 fe 3d 00 c2 8a bd
       -0.081048556 0.1473009 0.12419315 -0.06775284
0000a0 46 27 dc 3d ac d9 97 ba c7 5f 29 3e d4 2c 0b 3e
       0.10749678 -0.0011585257 0.16540442 0.1359132
0000b0 b5 f9 0e 3d 43 74 38 3e e0 6e 49 3e c8 a0 d2 bc
       0.034906108 0.180131 0.19671202 -0.025711432
0000c0 cf a7 db bd e8 94 33 bd d4 10 e8 bd c0 f7 8c 3e
       -0.10725366 -0.04384318 -0.11331335 0.27532768
0000d0 20 d4 f7 3b 9b 6e a8 3c 70 ae 09 3e 1c 14 5c bd
       0.007563129 0.020560553 0.13445449 -0.053730115
0000e0 f8 35 49 3d 68 bc 9c bc ec d4 50 3d ae 17 8c bd
       0.049123734 -0.019132808 0.050984308 -0.06840454
0000f0 96 e7 93 bd 99 c9 78 3e 98 5d de 3d a5 ea b1 3d
       -0.07221906 0.24295653 0.10857695 0.08687333
000100 31 e1 a8 3e 8a 23 96 3e d2 ed c5 bd 70 e8 17 3c
       0.32984307 0.2932399 -0.09664501 0.009271726
000110 cb 9e a2 bd a0 0e a9 3b 57 5a 03 3d 25 ef 20 bd
       -0.079404436 0.005159214 0.032068577 -0.039290566
000120 a0 c5 3e 3e f4 81 20 bd 8f 71 c9 3d 21 07 4a 3c
       0.18630075 -0.039186433 0.09836113 0.012330801
000130 0c 55 77 3e a5 f6 bc 3d 80 a9 e4 3c 32 07 ec 3d
       0.24153537 0.09226731 0.027912855 0.1152481
000140 8c bb 67 bd e8 2a 14 bc b9 9e ae 3d 32 6d c0 3d
       -0.056575343 -0.009043433 0.08526368 0.09395827
000150 d4 ac e4 3e 32 ca d6 3d 8d ed 67 3e b7 98 61 3e
       0.44663107 0.104877844 0.22649212 0.22030912
000160 55 12 0e bc e4 86 ee 3d e9 28 d3 bd 8f fa 64 be
       -0.008671363 0.11646822 -0.10310537 -0.22361206
000170 6c 71 73 3d b4 50 9a bd 31 96 88 3e 53 b5 c0 bd
       0.05943434 -0.07534924 0.26677087 -0.09409585
000180 86 8f b6 bd a8 eb d4 bd 81 a5 82 3e 03 63 9d bd
       -0.08914094 -0.1039651 0.25516894 -0.076849006
000190 b2 96 c5 bd 47 19 58 3e 61 59 88 3b aa df d2 bd
       -0.096478835 0.21103393 0.0041610454 -0.10296567
0001a0 9e ee 81 3e a5 42 43 3f a7 32 88 3e 7a 68 c3 3d
       0.25377363 0.76273566 0.26601145 0.09541412
0001b0 58 fe aa bd 44 bc b6 3c 89 55 75 3b 78 f6 f8 bd
       -0.083492935 0.022306569 0.0037435016 -0.12156385
0001c0 4d ec c2 3d 54 32 4f bd 78 bb 2f 3d e4 7f f1 bc
       0.09517727 -0.050585106 0.042903394 -0.029479928
0001d0 d2 67 e5 3d 4b ae c0 3d e8 ee 7e 3e df eb 92 3d
       0.11201443 0.09408244 0.24895823 0.07173895
0001e0 43 6a 9d 3e ec 65 27 3d 91 17 0b 3d c8 e4 e6 bc
       0.30745134 0.040868685 0.03395802 -0.028185263
0001f0 84 06 d0 3d 6b 08 a4 bd 27 52 7d 3e e1 61 34 3b
       0.10157493 -0.08009418 0.2473837 0.002752416
000200 f5 90 09 3e 81 5e 8b 3d 4c da 5f bd 08 29 c1 3c
       0.13434203 0.068051346 -0.054651543 0.023579136
000210 f8 43 fb bc e6 d8 c3 3c 43 50 05 3d 4a 26 ba bd
       -0.030672058 0.023907136 0.032547247 -0.09089334
000220 03 10 61 3e 38 6e 61 bd ae aa db bc 11 5b 0c bd
       0.21978764 -0.055036753 -0.026814785 -0.034266535
000230 16 9a 4a 3e 0b 2d ee bd 2e 7e b8 bd 41 ca 59 3e
       0.19785342 -0.11629685 -0.09008442 0.2126856
000240 34 22 1b bd 75 ed 17 3e fc 32 cf bd 0c d1 c3 3c
       -0.037874416 0.14836676 -0.101171464 0.023903392
000250 48 3a bd 3d 68 cf 38 bd 1e 01 25 3e 76 56 23 3e
       0.09239632 -0.045119673 0.16113707 0.15950951
000260 c6 1c 2e bc 99 f3 85 3e df c3 5b 3e 18 00 61 3e
       -0.010626977 0.26162413 0.21461438 0.21972692
000270 80 d0 7e bb 40 af 2b bb f8 8c 53 3e 73 2c 5a 3c
       -0.00388816 -0.0026196986 0.20659244 0.013316262
000280 96 31 2a 3d f4 bb 8c 3e 3d 90 52 3e 9f 80 1f bd
       0.041551195 0.27487147 0.20562835 -0.038941022
000290 1e 29 bc bd 1d 33 36 3e f8 c8 76 bd f6 51 d9 bd
       -0.0918753 0.17792936 -0.060250252 -0.10611336
0002a0 b5 a2 71 3e 4a 43 4b be 66 53 88 3e fb 6f d1 bd
       0.23597224 -0.19849887 0.26626128 -0.10226437
0002b0 b9 cb b2 bd 7e f7 74 3e 9a 92 3b 3e bc 28 5f bd
       -0.08730263 0.23922536 0.18317643 -0.054482207
0002c0 b6 61 62 3d a2 54 a6 bd fe 19 8d bd 6c 71 9c 3d
       0.055268966 -0.08121611 -0.06889723 0.07638821
0002d0 96 21 83 bd 7b 95 cf bd f6 63 7f 3e de 00 36 bd
       -0.064028904 -0.10135933 0.24940476 -0.04443442
0002e0 7f 30 1b 3e 54 20 66 bd 40 c4 81 bc f4 02 bb 3d
       0.15155219 -0.056183174 -0.01584065 0.09131423
0002f0 a6 4f fa 3c 36 e8 64 3e a3 6e 39 3e 13 9a b4 bd
       0.030555557 0.22354206 0.18108611 -0.0881845
000300 67 97 52 3e d5 dc 6d 3e 80 03 19 3d 92 ed cb 3d
       0.20565568 0.23228772 0.037356853 0.09957422
000310 6f de 20 bd 2a 7e a7 bd 1b 4a ae bd 04 e1 91 bb
       -0.03927463 -0.08178361 -0.08510228 -0.004451873
000320 63 2e 11 3e 16 82 91 bd 75 44 f1 bc c7 d6 e8 bc
       0.14177851 -0.0710489 -0.029451588 -0.028422726
000330 30 95 86 3e 66 3f 16 bb d6 89 cf 3d 4b 29 2c 3e
       0.26285696 -0.0022925972 0.10133712 0.16812627
000340 9c 71 36 3d 48 2d 7c 3e 78 ab de bd 1b 35 35 bd
       0.04454194 0.24626648 -0.10872549 -0.0442401
000350 8b cf 06 bd 00 b2 f8 3d 81 a7 32 3e 60 a6 bd 3d
       -0.032912772 0.12143326 0.1744671 0.09260249
000360 55 11 b4 bd 0f 5a 68 3e 6e a3 5f 3e cc 13 41 3e
       -0.08792368 0.22690605 0.21839687 0.18855208
000370 78 ca b9 bd 80 5e 71 bd ff 88 26 3e 50 ba c7 bd
       -0.09071821 -0.058928013 0.16263197 -0.09752333
000380 2f 7a 2d bb d2 74 8a 3e 53 8f 49 3e a6 b6 9f 3c
       -0.0026470532 0.27042252 0.1968358 0.019496273
000390 e3 b4 c6 3c 30 4a 2a 3e ae eb 94 3d 88 4a ef 3d
       0.024256175 0.16629863 0.07271515 0.116841376
0003a0 fd 14 33 3e 7a 0d b6 39 e7 eb 69 3e 07 50 a1 bd
       0.17488475 0.00034723786 0.22843896 -0.07876592
0003b0 6c 2f 56 bd 9e 1a 75 3e c7 3c 4a 3e 7c c5 93 bd
       -0.05229132 0.23935935 0.19749747 -0.072154015
0003c0 80 53 37 3d 86 ba e8 bd 28 81 3e bd ed 79 6f 3e
       0.044757366 -0.113637015 -0.04650989 0.23386355
0003d0 40 da 57 bb ba b3 a0 bd c7 a7 4b 3e 96 2e 7c 3c
       -0.0032936484 -0.0784678 0.1988822 0.015391966
0003e0 a7 bd be 3d a2 32 f6 bd bf bc 05 bd 60 32 62 3c
       0.09313517 -0.12021376 -0.032650705 0.013805956
0003f0 f0 a3 80 bd 4b ef 66 3e e2 1e 35 3d 0f af e0 3d
       -0.062812686 0.2255222 0.044218905 0.1097089

model.4.bias f4 [5]
000000 ba 38 34 3d 45 8d 47 3e 9c 4e 0f 3e 5c 91 36 3d
       0.04399941 0.19487484 0.13994831 0.04457222
000010 72 4e 65 3e
       0.22393206
